…
n in Parkinson\u2019s disease.pdf", "file_type": "application/pdf", "file_size": 1861738, "creation_date": "2026-06-28", "last_modified_date": "2026-03-03"}, "hash": "f51c2c9b1a48541ddd83675897bb7d2290e8befba16f0c0a309a0680865b5324", "class_name": "RelatedNodeInfo"}}, "metadata_template": "{key}: {value}", "metadata_separator": "\n", "text": "Author Manuscript Author Manuscript Author Manuscript Author Manuscript\nLee et al. Page 29\nTable 3.\nArchitecture and parameters of the CRNN model\nLayer Number of filters Kernel size Stride Output shape Number of parameters Regularization\nInput - - - (1000, 27) 0 -\n1D convolution 32 3 1 (998, 32) 2624 -\nMax-pooling 32 3 2 (499, 32) 0 Dropout (0.5)\n1D convolution 64 3 1 (497, 64) 6208 -\nMax-pooling 64 3 2 (248, 64) 0 Dropout (0.5)\nGRU 35 - - (248, 35) 10500 -\nTime distributed 35 - - (248, 35) 1260 -\nGlobal average pooling 35 - - (1, 35) 0 -\nDense 35 - - (1, 2) 72 -\nTotal 20664\nJ Neurosci Methods. Author manuscript; available in PMC 2021 October 20.", "mimetype": "text/plain", "start_char_idx": 0, "end_char_idx": 654, "text_template": "{metadata_str}\n\n{content}", "class_name": "TextNode"}, "__type__": "1"}, "e4cb4865-97f0-435a-95b3-827ee41b5426": {"__data__": {"id_": "e4cb4865-97f0-435a-95b3-827ee41b5426", "embedding": null, "metadata": {"page_label": 
…
on in Parkinson\u2019s disease.pdf", "file_type": "application/pdf", "file_size": 1861738, "creation_date": "2026-06-28", "last_modified_date": "2026-03-03"}, "hash": "994ace4db52e87b0bfdc36a516e8bed9b6b9c8f67181c5bde56db1c1d88ecde5", "class_name": "RelatedNodeInfo"}}, "metadata_template": "{key}: {value}", "metadata_separator": "\n", "text": "Author Manuscript Author Manuscript Author Manuscript Author Manuscript\nLee et al. Page 30\nTable 4.\nArchitecture and parameters of the CNN model\nLayer Number of filters Kernel size Stride Output shape Number of parameters Regularization\nInput - - - (1000, 27) 0 -\n1D convolution 8 9 1 (992, 8) 1952 -\nMax-pooling 8 2 2 (496, 8) 0 -\n1D convolution 12 9 1 (488, 12) 876 -\nMax-pooling 12 2 2 (244, 12) 0 -\n1D convolution 12 9 1 (236, 12) 1380 -\nMax-pooling 12 2 2 (118, 12) 0 -\n1D convolution 16 9 1 (110, 16) 1744 -\nMax-pooling 16 2 2 (55, 16) 0 -\nDense - - - (1, 30) 26430 Dropout (0.5)\nDense - - - (1, 5) 155 Dropout (0.5)\nDense - - - (1, 2) 12 -\nTotal 32477\nJ Neurosci Methods. Author manuscript; available in PMC 2021 October 20.", "mimetype": "text/plain", "start_char_idx": 0, "end_char_idx": 731, "text_template": "{metadata_str}\n\n{content}", "class_name": "TextNode"}, "__type__": "1"}, "d7a5731e-30f6-4d17-807a-812fa02c58fe": {"__data__": {"id_": "d7a5731e-30f6-4d17-807a-812fa02c58fe", "embedding": null, "metadata": {"page_label": 
…
